models/pytorch_beer.pt (torch, 17943 bytes, 4 tensors)

layer_1.weight f4 [32, 18]
000000 c2 65 a7 3d d5 e7 ec 41 b1 9f a3 40 27 f3 5e c1
       0.08173706 29.6132 5.1132436 -13.934363
000010 16 71 96 40 47 02 b7 41 85 72 52 c0 9d 83 13 c1
       4.7013044 22.876112 -3.2882397 -9.219632
000020 46 29 6d c1 c1 95 4e c1 88 a4 c4 c1 23 9e 0f 41
       -14.8225765 -12.911561 -24.580338 8.976108
000030 98 e3 11 41 8d cd 18 c1 9e 2d d7 c1 4e 63 97 c1
       9.118065 -9.550183 -26.897274 -18.923489
000040 f7 e0 53 c1 03 99 12 c1 b3 e1 6e 3e 45 d3 4e 41
       -13.242423 -9.162356 0.23328285 12.926579
000050 33 e7 79 41 ca 6f b6 3f 14 60 d6 41 10 f0 6d 41
       15.618945 1.4252865 26.796913 14.871109
000060 6b 3d 90 41 03 4a 71 41 d0 16 3f 40 29 a1 7d 41
       18.02999 15.080569 2.9857674 15.851846
000070 4d 86 90 41 31 76 1b 42 bf f5 73 41 b0 0e 89 41
       18.065577 38.86542 15.247497 17.132172
000080 a1 3a 6d 40 4b ca db c0 f7 dc 9b c1 0b d0 16 c1
       3.7067034 -6.868444 -19.482893 -9.425792
000090 0e 7c fb bd 13 e9 aa c1 8a 55 19 41 2d b6 76 40
       -0.12279521 -21.363806 9.583384 3.8548691
0000a0 1f 42 21 41 1f 8b 9a 41 4d d4 f1 41 b0 1f 3e 41
       10.078643 19.31793 30.228662 11.882736
0000b0 da 24 89 be a5 58 11 41 01 a0 01 be c0 f2 12 41
       -0.26785928 9.084142 -0.12658693 9.184265
0000c0 ce ca 42 c1 ca 67 ac 41 fb 8d 84 41 49 27 68 c1
       -12.174513 21.550678 16.569326 -14.509591
0000d0 26 3e 1b 40 d7 4d 95 c0 f1 0e 31 3e 03 aa c2 40
       2.4256682 -4.665752 0.17290856 6.0832534
0000e0 ad e8 3b 40 06 45 ed c0 78 ef 68 c0 62 f1 4f c0
       2.9360764 -7.4146757 -3.639616 -3.2491078
0000f0 1c b0 c9 c1 93 e4 a3 c1 8e 27 e6 c0 32 26 6d c1
       -25.21099 -20.486609 -7.1923285 -14.821825
000100 dc 68 4a c1 19 fa 38 c1 e0 1d 20 40 46 89 2d c1
       -12.6506 -11.561059 2.5018234 -10.846014
000110 46 20 8d c1 bd 49 74 c0 a5 49 7f 40 93 66 5b c1
       -17.640759 -3.8170006 3.98887 -13.712543
000120 b8 db 9a bc f2 01 07 3f d9 fe 64 c0 b5 8f 19 bd
       -0.018903598 0.52737343 -3.5780547 -0.037490565
000130 73 1c d8 bf 36 7c 65 be c1 23 32 c0 39 2e 78 c0
       -1.6883682 -0.22410664 -2.7834322 -3.8778212
000140 ac 3f 52 c0 f0 b6 90 c0 8f 6b 0b c0 cd 68 81 c0
       -3.2851362 -4.522331 -2.1784399 -4.044043
000150 a5 e4 ac c0 51 0c e0 c0 d4 8c 90 bf b4 dd dd be
       -5.4029107 -7.0015035 -1.1292977 -0.4333321
000160 f3 be 63 bf 46 d2 20 3e a8 3a d4 bc f1 f3 56 c0
       -0.8896324 0.15705213 -0.025906876 -3.358639
000170 9a ad c9 c0 2e c3 d5 be 79 4a 3a c0 3a a2 2f 40
       -6.3024416 -0.41750473 -2.9107955 2.7442765
000180 02 29 32 c0 fe a1 7b bf dc 00 be c0 3d 2b 66 c0
       -2.783753 -0.98294055 -5.937605 -3.596389
000190 4f 57 89 c0 c8 a0 30 c0 23 fd 36 c0 19 c8 90 c0
       -4.291908 -2.7598133 -2.8592002 -4.524426
0001a0 10 35 a1 bf 9e 9c d1 3e 33 aa 69 3d 19 c1 d0 c0
       -1.2594318 0.40939802 0.05704708 -6.5235715
0001b0 76 3c 26 be cd f6 d1 bf 60 80 2c bf dc d5 5b bf
       -0.16234002 -1.6403443 -0.67383385 -0.858732
0001c0 ea a3 15 bf 1f b5 ce bf 93 1a 7f be b3 eb f2 be
       -0.5845324 -1.6149024 -0.24912481 -0.4744545
0001d0 0b 4e 4f bf 9d 0c 01 bf bd da 4d bf 04 d5 cd bd
       -0.8097846 -0.5040987 -0.80411893 -0.10050395
0001e0 f3 a3 14 bf 60 d6 1c bf ea 8f fa be c3 e4 42 3f
       -0.58062667 -0.6126461 -0.48937923 0.7613031
0001f0 21 74 d4 3e 43 27 1e 3e c4 d4 09 be a9 b5 13 3e
       0.4149485 0.15444665 -0.1346007 0.14424767
000200 66 d3 98 bf 06 d1 a8 bc ab 4c 65 bf b1 0a d3 be
       -1.1939514 -0.020607483 -0.8957011 -0.41219094
000210 c3 4f 6d bf ca 44 89 bf 40 d7 84 bf 0d c1 93 be
       -0.9269983 -1.0724118 -1.0378189 -0.28858224
000220 b8 87 6b bf a3 28 c3 be e4 67 cc be 71 3f 6b bf
       -0.92003965 -0.3811694 -0.39923012 -0.9189368
000230 bf 68 b7 3e 8f 41 9c 3e f2 ae cb be 16 d0 72 bd
       0.35822102 0.30518767 -0.3978191 -0.059280477
000240 1a b4 d9 3d fd 09 83 40 bf 75 ee bf 07 a9 49 c1
       0.10630055 4.0949693 -1.8629683 -12.603766
000250 a7 cd 4a 41 c4 1a f1 3f c8 69 a9 c0 ff 44 87 41
       12.675208 1.8836293 -5.2941628 16.90869
000260 a3 1e bc c0 cf 1e 45 41 23 ce d4 c0 1a 1a 9a 41
       -5.87874 12.320022 -6.650163 19.262745
000270 12 4c 92 41 7f a9 21 c1 94 54 d7 41 49 5e df 41
       18.287144 -10.103881 26.916298 27.921038
000280 3b 50 12 41 2b 45 9f 40 5e e3 99 3d ca fc a6 bf
       9.1445875 4.9771934 0.0751407 -1.3045895
000290 3f 3a 70 c0 85 92 86 c0 c3 7b f0 bf 69 b6 e5 bf
       -3.753555 -4.2053857 -1.8787769 -1.7946292
0002a0 b2 cc 1c c0 86 46 25 c0 f0 a2 54 c0 23 4f dd bf
       -2.4499936 -2.5824294 -3.322445 -1.7289776
0002b0 eb 8b 1a c0 0e 23 fb bf 0a 2e 89 c0 67 07 39 c0
       -2.41479 -1.9620073 -4.28687 -2.8910768
0002c0 9d 78 9b bf ae 1d bc be 7a a4 d8 3f 0f 70 c1 bf
       -1.2146183 -0.36741394 1.6925194 -1.5112323
0002d0 49 ff 38 3e 60 17 19 41 8d af 80 c1 be aa d8 c1
       0.18066134 9.568207 -16.085718 -27.08337
0002e0 92 02 37 c1 d2 c1 67 c1 51 e4 31 c1 d7 a1 67 41
       -11.4381275 -14.484819 -11.118241 14.477012
0002f0 e1 46 0e 40 4b c5 f9 c0 0a c6 34 c1 3c 5a c8 c1
       2.223076 -7.8053336 -11.298349 -25.04406
000300 b3 63 1b 3e b1 11 97 c1 ed 4e 85 c1 aa e6 36 c1
       0.15174751 -18.883638 -16.663538 -11.431314
000310 7c c9 f6 40 b2 6c 7c c1 95 d7 52 be 05 27 7e 40
       7.7120953 -15.776537 -0.2059005 3.9711316
000320 80 2f 9e 41 09 fa cd 41 6f ad 6a c0 36 d6 ec 41
       19.773193 25.747087 -3.6668355 29.604595
000330 f3 9f 6c 3f 08 34 4f 41 88 7e 31 40 90 08 14 3f
       0.92431563 12.950203 2.7733479 0.57825565
000340 89 e9 09 42 c6 a3 ed c1 ae 13 36 c1 ee dc 51 c1
       34.47806 -29.704967 -11.379805 -13.116438
000350 8b 20 6d c1 16 b6 bd c1 12 52 d1 c1 0d 86 48 c1
       -14.820445 -23.71391 -26.165073 -12.532727
000360 d8 a0 5a be 7e 28 37 bd c8 bd 7f be 66 ae 39 be
       -0.2135042 -0.04471635 -0.2497474 -0.18132934
000370 c6 f9 25 bf e7 9d e6 be 16 97 44 bf 84 15 0a 3d
       -0.6483425 -0.45042345 -0.7679304 0.033711925
000380 74 b3 c8 be ef a3 42 bf 22 1a 48 bf ac 85 be be
       -0.39199412 -0.7603139 -0.78164876 -0.3721136
000390 1a 07 30 bf 85 23 06 bf b5 27 ba 3e 33 d3 cd 3e
       -0.68760836 -0.5239795 0.3635842 0.40200195
0003a0 17 af 52 be 16 78 79 3e c8 4f 33 bd 74 10 11 41
       -0.20574604 0.24362215 -0.043777257 9.066517
0003b0 8b 76 01 41 50 46 16 40 e0 46 47 42 ee 27 a1 40
       8.091441 2.3480415 49.819214 5.036124
0003c0 91 00 16 41 39 13 4a 41 87 20 2a 41 89 b3 db 41
       9.375138 12.629693 10.632941 27.462664
0003d0 4c 85 3e 41 57 64 98 41 96 50 6a 41 3d 94 9d 41
       11.907543 19.048994 14.644674 19.697382
0003e0 17 60 f0 bf a3 a3 86 bf 28 89 42 41 a9 a5 7e c1
       -1.8779324 -1.0518688 12.158485 -15.915444
0003f0 ed 5a 4b be 1f e4 a2 bf 89 55 3b c0 2e d3 c2 bf
       -0.19858904 -1.2725867 -2.9270957 -1.5220697

layer_1.bias f4 [32]
000000 1b 73 b2 c0 7d 0d e5 41 fb 1b d5 41 1d 47 b9 c1
       -5.576551 28.631586 26.638662 -23.159723
000010 5c 52 a4 c0 26 2d 88 c0 ec 99 21 bf 96 5b 34 bf
       -5.1350536 -4.2555113 -0.6312549 -0.7045225
000020 00 6c 8e 40 df 5b ee c0 c1 21 fb c1 b6 f0 2e c1
       4.4506836 -7.4487147 -31.391481 -10.933767
000030 42 35 38 bf 7b 53 16 42 fc 6a 07 c1 01 54 ab bf
       -0.71956265 37.581524 -8.463619 -1.3385011
000040 d5 ad 9d c0 77 e2 7d bf 63 09 01 c1 88 cf 68 c1
       -4.9274697 -0.9917368 -8.064792 -14.550667
000050 e3 61 60 c0 97 be 51 c1 ab fe 16 c0 d6 65 96 41
       -3.5059745 -13.109031 -2.3592937 18.799725
000060 5f a4 e1 41 95 8d 20 c0 bf f5 a4 40 96 b6 4b c1
       28.20526 -2.5086415 5.1549983 -12.732077
000070 99 73 08 42 0c 3b 81 bf f7 4c fa c0 59 a7 42 c0
       34.11289 -1.0096145 -7.821895 -3.041464

layer_out.weight f4 [104, 32]
000000 86 ad 37 bf 42 d1 8f bf 14 a8 8c bf 51 d1 84 bf
       -0.7174915 -1.1235735 -1.0988793 -1.0376378
000010 ab cd 83 bf 23 d7 45 bf e4 58 32 bf ba ac 72 bf
       -1.029714 -0.772814 -0.69666886 -0.9479481
000020 ce b6 74 bf dd 5c 91 bf 0c 28 59 bf b0 f5 99 bf
       -0.9559144 -1.1356465 -0.8482673 -1.2028103
000030 d9 11 5b bf 83 88 b4 bf 80 f0 29 bf 19 96 1e bf
       -0.8557411 -1.410416 -0.663826 -0.6194778
000040 8b d8 97 be ae 62 2d bf 70 6b 8d bf d5 b1 8f bf
       -0.29657397 -0.677287 -1.1048412 -1.1226145
000050 19 f3 25 bf 44 28 ad bf ae ad 4d bf 6e ec 2b bf
       -0.6482406 -1.3527913 -0.8034314 -0.6715764
000060 52 aa 9c bf ce 52 e2 bf a2 1d 8f bf 39 7b 9a bf
       -1.2239478 -1.768152 -1.1180918 -1.2068855
000070 5e 05 84 bf 33 88 34 bf 3c 74 96 bf 0d 3e a3 bf
       -1.0314138 -0.70520324 -1.1754222 -1.2753311
000080 1c e8 08 c1 9e fa 90 c1 47 a2 d4 c1 ba a4 0c 41
       -8.556667 -18.122372 -26.579237 8.790216
000090 65 67 f6 3f fb e8 6a c0 1d c9 5f bd 7a 49 63 3e
       1.9250304 -3.67047 -0.054635156 0.22195998
0000a0 2f 2b 72 c0 59 9c 22 bf 6a b7 9f 40 88 64 75 bf
       -3.7838857 -0.6351982 4.9911394 -0.95856524
0000b0 0f 73 b8 3e 51 d5 22 c2 4d 45 dc be 98 05 61 bf
       0.36025283 -40.708317 -0.43021622 -0.8789916
0000c0 52 25 3f c0 4c e3 d1 3e 2d 7a 85 be 80 ad 5d 40
       -2.9866529 0.40993726 -0.26069775 3.4637146
0000d0 64 05 3f c0 dc 25 34 c0 9f 4a be 3f ad 6b 55 c1
       -2.984704 -2.8148108 1.4866523 -13.338788
0000e0 15 3e 8f c1 6e 25 36 3f 38 c0 b0 c0 ff 8a 1c 3f
       -17.905313 0.71150863 -5.523464 0.6114959
0000f0 83 00 a5 c1 f5 46 6a bf 34 ce 0f bf 11 87 8c bf
       -20.62525 -0.9151452 -0.56174016 -1.0978719
000100 1f 40 78 bf 9a 54 9a 3e 33 d9 02 c0 c1 f8 dd 3e
       -0.9697284 0.3014267 -2.0445068 0.43353847
000110 05 33 88 bf ed 14 50 bf 12 58 29 bf 07 d9 82 bf
       -1.064057 -0.8128193 -0.6615001 -1.0222481
000120 91 f8 2c bf 2c 18 b3 3e 04 93 9b bf 2b 38 90 c0
       -0.6756678 0.3497938 -1.2154241 -4.5068564
000130 55 c4 84 bf 4a 48 55 c0 20 59 5f bf d9 ea ec be
       -1.0372416 -3.3325372 -0.8724537 -0.46272925
000140 ac cc 10 bf b9 a2 29 bf 29 80 ca bf e2 93 56 bf
       -0.56562304 -0.6626392 -1.5820361 -0.838194
000150 c2 d3 1a bf 58 88 b5 bf db 75 6d bf e3 61 9a bf
       -0.60479367 -1.4182234 -0.9275796 -1.2061123
000160 bd 31 53 bf ea f6 b9 bf e7 10 72 c0 bc 46 ba be
       -0.8249777 -1.4528477 -3.7822816 -0.3638209
000170 44 cc 99 bf 31 a8 e8 3e 26 69 ac bf 21 b2 58 bf
       -1.2015462 0.4544082 -1.3469589 -0.84646803
000180 aa 2e 18 bf 43 83 9d bf ae 8a 28 bf 9b 01 51 bf
       -0.59446204 -1.2305683 -0.6583661 -0.81643075
000190 fd 85 aa bf ed 6e 2d bf b2 7b 37 bf f3 25 22 bc
       -1.332214 -0.67747384 -0.7167312 -0.009896743
0001a0 49 ab 37 bf 63 bc 9b bf 6e c1 2a bf 10 24 25 bf
       -0.71745735 -1.2166866 -0.667014 -0.6450815
0001b0 f9 fd 6a bf b3 52 96 bf eb 57 5f bf 33 9f 1b bf
       -0.9179378 -1.1743988 -0.8724353 -0.60789794
0001c0 d8 0f 8a bf cf 91 01 bf 6f e7 3d bf 39 97 54 bf
       -1.0786085 -0.5061311 -0.74181265 -0.8304325
0001d0 34 44 46 bf 54 1f a0 bf 92 dc 91 bf 9e 9c 30 bf
       -0.7744782 -1.250956 -1.1395438 -0.6898898
0001e0 8c af 69 bf d6 44 ca bf d2 67 92 bf 0c f4 f8 be
       -0.9128349 -1.5802257 -1.1437933 -0.48623693
0001f0 2f e0 bb bf 82 8e 23 bf 85 10 68 bf 44 9d 88 be
       -1.467779 -0.63889325 -0.90650207 -0.26682484
000200 2c 96 ca 3e f7 9b 87 be bf e1 8a bf e7 bd 02 3e
       0.39567697 -0.2648618 -1.0850142 0.12767754
000210 83 81 a7 bf 65 87 7d bf 0c 61 3d bf f2 10 72 be
       -1.3086399 -0.9903472 -0.73976207 -0.23639277
000220 fa 55 b1 bf 8a 29 d7 be 96 4d 0d bf 32 ca 6a 3e
       -1.3854363 -0.4202388 -0.5519651 0.22928694
000230 85 50 a3 3e 63 d6 5d bf 9f 4f 14 bf c8 39 ff be
       0.3189737 -0.86655253 -0.5793399 -0.4984877
000240 f1 0e b9 be 7c 2f 3d bf e8 dc b7 bf d5 92 1d bf
       -0.36144212 -0.7390058 -1.436429 -0.6155217
000250 75 58 56 3e f1 ba b0 bf 90 f4 99 bf 3d 35 9f bf
       0.20932181 -1.380705 -1.202776 -1.2438122
000260 e1 ca 64 3e f3 1e 40 bf 1f 45 4a bf cb d6 ea bd
       0.22343017 -0.75047225 -0.7901172 -0.1146675
000270 8e 05 b6 bf 34 a7 16 3f a5 62 81 bf 50 17 db bf
       -1.4220445 0.5884888 -1.0108229 -1.711649
000280 f8 16 2c bf df 8a a0 3e d4 1a 90 bf 49 36 6f c0
       -0.6722255 0.3135595 -1.1258187 -3.7376883
000290 d1 cf 3b bf e4 7c ca 3f 01 77 1e bf 3b 1c 59 bf
       -0.7336398 1.5819364 -0.61900336 -0.848087
0002a0 9a ca 09 bf e7 9a 99 bf da 48 4a c0 bf e9 23 c0
       -0.5382477 -1.2000397 -3.1606965 -2.5611417
0002b0 ea a6 27 bf 6f b9 af bf e9 85 37 3f 15 54 24 bf
       -0.65489066 -1.3728465 0.71688706 -0.641908
0002c0 8f cb a8 bf fc 78 21 3f 3b cd 17 c0 b6 80 e6 be
       -1.3187121 0.6307523 -2.3719013 -0.45020074
0002d0 0e e5 43 bf 77 e6 b8 bf fe 40 97 bf 3b 5a f0 3e
       -0.76521385 -1.4445332 -1.1816709 0.4694384
0002e0 3c 64 09 bf c9 75 be bf 56 07 9f bf 3a 0e 14 c0
       -0.5366857 -1.4879695 -1.2424114 -2.3133683
0002f0 f9 cb f5 be 5b 4c 89 bf ff 33 96 bf e1 0b c2 bf
       -0.4800718 -1.0726427 -1.1734618 -1.5159875
000300 70 ac 50 bf 7f a7 75 bf 5a 8e 8c bf 48 87 82 bf
       -0.8151312 -0.95958704 -1.0980942 -1.0197535
000310 f9 c2 9a bf 3d fa 1f bf 13 6d 28 bf 8a 05 91 bf
       -1.2090751 -0.6249121 -0.65791434 -1.1329815
000320 1c f8 83 bf aa 3f 92 bf 5f 14 4f bf 39 8d 58 bf
       -1.0310092 -1.1425679 -0.8089046 -0.8459049
000330 45 d6 64 bf 59 e5 b1 bf 42 cd 49 bf 1a 1e e5 be
       -0.8938945 -1.3898116 -0.78828824 -0.44749528
000340 9b 7f 74 bf 13 80 42 bf 1e dc 58 bf 97 bf 5f bf
       -0.9550721 -0.75976676 -0.8471087 -0.8740172
000350 77 95 18 bf 64 e1 9d bf 7c 6e 29 bf 83 14 1d bf
       -0.59603065 -1.2334409 -0.6618421 -0.61359423
000360 2f 92 90 bf 37 cf da bf aa 7f 91 bf 70 b2 89 bf
       -1.1294612 -1.7094487 -1.1367085 -1.075758
000370 fe 59 ad bf eb 66 3e bf c2 e6 96 bf fd a9 82 bf
       -1.3543088 -0.7437579 -1.1789172 -1.0208126
000380 48 81 23 bf 11 dc 70 bf 34 5f 99 bf 25 2c 47 bf
       -0.6386914 -0.94085795 -1.1982179 -0.77801734
000390 ea c5 81 bf 4b 3d 04 bf 0a ad 32 bf 77 e0 81 bf
       -1.0138524 -0.51656026 -0.69795287 -1.0146626
0003a0 30 42 7f bf 63 91 81 bf 03 c7 04 bf 5b ea 66 bf
       -0.9971037 -1.0122494 -0.5186617 -0.9020135
0003b0 0b a5 60 bf 42 0e a4 bf 2c 20 4c bf 95 38 24 bf
       -0.87751836 -1.2816851 -0.7973659 -0.6414884
0003c0 a0 c6 87 bf 5e 54 19 bf 3a fc 8d bf aa 3c a8 bf
       -1.060749 -0.5989436 -1.1092598 -1.3143513
0003d0 7e 74 5c bf 8a 94 b4 bf aa ac 50 bf 79 bf 62 bf
       -0.8611525 -1.410783 -0.81513464 -0.88573414
0003e0 23 6c 7f bf ff b5 c8 bf 54 1b 9b bf f6 e7 66 bf
       -0.9977438 -1.5680541 -1.2117715 -0.90197694
0003f0 f2 1c 9a bf 39 eb 51 bf 32 3a 76 bf 67 ec 67 bf
       -1.2040083 -0.81999546 -0.9618255 -0.90595096

layer_out.bias f4 [104]
000000 d4 1c c9 c0 9e b4 3b c2 60 89 7e c0 74 60 c9 c0
       -6.284769 -46.926384 -3.9771347 -6.293024
000010 3d 21 9a c0 9e ed e3 c0 cf d9 c2 c0 0c 41 bb c0
       -4.8165574 -7.122756 -6.089088 -5.8516903
000020 28 f3 c8 c0 2d cb 87 c1 9e 73 c8 c0 80 2f 75 c0
       -6.279682 -16.974207 -6.2641134 -3.8310242
000030 9a 45 93 42 73 68 c8 c0 8d 18 02 c0 2b d0 a4 c0
       73.63594 -6.26275 -2.0327485 -5.150411
000040 33 af 94 c0 25 96 85 c0 f4 4b c9 c0 9d af b8 c0
       -4.6463866 -4.174578 -6.2905216 -5.771437
000050 3f 11 a2 c0 46 2d d1 c0 65 01 cb c0 35 65 cc c0
       -5.064605 -6.5367765 -6.34392 -6.3873544
000060 6f 98 cc c0 65 48 90 c0 a3 8c ac c0 05 c9 ca c0
       -6.3936076 -4.508837 -5.3921676 -6.3370385
000070 0d eb c9 c0 f7 b4 c5 c0 3b 7b c7 c0 a2 a0 c9 c0
       -6.3099427 -6.1783404 -6.233793 -6.3008585
000080 73 d4 ca c0 10 da c9 c0 ea eb ca c0 7c 17 c0 c0
       -6.3384337 -6.307869 -6.341298 -6.0028667
000090 56 68 83 c0 52 a2 b5 c0 b5 db e3 c0 f3 73 c4 c0
       -4.1064863 -5.6760645 -7.1205697 -6.139154
0000a0 bb 7d b8 c0 51 ad b9 c0 0f 48 ba c0 1b 40 c8 c0
       -5.765348 -5.802407 -5.821296 -6.2578254
0000b0 32 5d 80 c0 04 cf c7 c0 05 9d 9c c0 aa b1 8e bf
       -4.0113764 -6.2440205 -4.8941674 -1.1147969
0000c0 9d dc cc c0 7c c5 c6 c0 13 57 ac c0 fa 2c cb c0
       -6.4019303 -6.211607 -5.385629 -6.3492403
0000d0 eb 93 c6 c0 40 77 c6 c0 ab da c9 c0 41 07 b5 c0
       -6.2055564 -6.202057 -6.307943 -5.6571355
0000e0 07 ba c8 c0 f3 89 cd c0 2b 19 cf c0 b8 49 b0 c0
       -6.2727084 -6.4230895 -6.4718223 -5.508999
0000f0 66 13 16 c0 0b 3d 96 c0 50 3e c3 c0 df 82 ab c0
       -2.344934 -4.6949515 -6.1013565 -5.3597255
000100 c4 bb ce c0 7c 94 e6 c0 7b 9c bd c0 d2 ed b0 c0
       -6.4604206 -7.2056255 -5.9253516 -5.529031
000110 76 94 c3 c0 48 32 cb c0 ed be ca c0 f0 52 cc c0
       -6.1118727 -6.349888 -6.3358064 -6.385124
000120 ea 85 c8 c0 e8 9e c7 c0 61 61 c7 c0 07 a4 c7 c0
       -6.266347 -6.2381477 -6.230637 -6.238773
000130 49 1d 06 c1 62 c4 cb c0 41 29 c9 c0 82 f3 ba c0
       -8.38215 -6.3677225 -6.286286 -5.842225
000140 df 79 c4 c0 23 27 c7 c0 c4 03 78 c0 3e 69 a4 c0
       -6.139877 -6.2235274 -3.8752298 -5.137847
000150 08 58 aa c0 9b bb b1 c0 eb 18 f1 c0 ca 93 cb c0
       -5.323246 -5.554151 -7.5342917 -6.3617907
000160 72 7e d1 c0 62 07 80 c0 48 63 c9 c0 7f 03 ca c0
       -6.546685 -4.000901 -6.2933693 -6.312927
000170 31 62 bc c0 a4 16 cf c0 61 91 94 c0 d8 7b cb c0
       -5.8869863 -6.4715137 -4.6427464 -6.3588676
000180 d5 bb c7 c0 92 15 c9 c0 0e 65 9b c0 b7 4c c3 c0
       -6.2416787 -6.283883 -4.856086 -6.1031146
000190 a0 9a c1 c0 a7 ae cc c0 06 1d c2 c0 00 6a e6 c0
       -6.050125 -6.39632 -6.066043 -7.2004395
