models/pytorch_beer.pt (torch, 17943 bytes, 4 tensors)

layer_1.weight f4 [32, 18]
00000000: 2ae5 a03d 955c 27bf f78b b4bf eeb2 71bf
00000010: 1aa6 1bbf 8cc8 dbbe 0088 21bf 65f9 39bf
00000020: e94a 52bf ab4a 9abf 955b 99bf 6f2e 0fbf
00000030: 5467 3bbf a490 52bf ec88 923f 91a9 0a3f
00000040: 4b26 523e 1542 a53e 14d6 27bd 6bc9 a43e
00000050: 4ab7 a441 a1ae 9e42 2920 67c2 1efb 22c2
00000060: a08e aa41 fce3 4dc2 22a4 2640 5a24 303f
00000070: 8e8b f83f 996e 0a41 3e08 64c1 be4f 16c2
00000080: 5051 99c2 db7b efc1 eba6 19c2 68c8 afc2
00000090: 50cd 5ebe afe2 4ac2 77b7 acc1 1868 5442
000000a0: dea1 6dc1 7361 eac1 4c9c 01c1 2c05 eac1
000000b0: 73f0 9441 432f bf41 4efb 03c2 3afa 8fc2
000000c0: 72c3 b3c2 ff08 c5c1 9723 90c2 9f03 7ec2
000000d0: 0dd2 dcc2 7ce3 4c40 7857 5ebe 8125 22c0
000000e0: 4519 93c0 41e6 08c0 d65a 4fc0 f4cc 37c0
000000f0: 76f0 b8c0 7dac c8bf ed60 f0c0 ea01 74c0
00000100: 0ebf 9dc0 5668 1bc0 9f13 0bc1 da65 5ac0
00000110: a0c6 4340 2bbe 253e 88ff 4d40 8bb0 0540
00000120: e0d2 3dbe 636f 0141 fde7 82c1 272f b5c1
00000130: 4aa3 68c1 abfd 0ec0 287a b7c1 02d3 0ebf
00000140: dc8c c5c1 351c cbc1 8a1e 5ec1 2e7c cbc0
00000150: 7052 68c0 39f3 4040 a7e0 b5c0 9a87 4bc1
00000160: c7ea 8841 e9fa 7641 d6fd a03d 47df 04bf
00000170: 5502 07bf bb10 27bf d5c3 0cbf a160 82bf
00000180: b67f 5bbe a5d7 cfbe f1ba 2ebf 41be 5abf
00000190: 3b62 4fbe 7289 69bf d252 43bf 8343 38bf
000001a0: f464 19bd b88a 553e 237f e53e 0acc 613e
000001b0: e17a 013e 3286 1dc2 d42e 1c41 44e9 0dc1
000001c0: fb68 a3c1 58e8 3fc2 2160 81c2 a808 14c2
000001d0: 05c7 5dc1 0ed2 f7c1 196c 35c2 fa1b a2c2
000001e0: aa7b 4bc2 f262 4ac1 1256 35c2 5fa3 68c2
000001f0: 5ca7 f3c1 ca61 a440 b9a4 2f3e 83c6 0ec2
00000200: 5388 f6c1 ba2b 0841 056f 07c2 3f4b 34c2
00000210: a2f8 66c2 0902 8dc1 e629 4ac2 8a30 6a3f
00000220: c0fe 2dc2 38d9 9cc2 522f 20c2 1336 bec1
00000230: a795 5dc0 5d52 0fc2 19d3 29c2 6550 65c2
00000240: 023d 57be 4e0e 11c0 d896 39c0 89f8 1fc1
00000250: 84a8 a7c0 5563 26c1 07b8 81c1 3893 63bf
00000260: 02ac f3c0 ed94 1fc1 34a9 c5c0 5e10 09c1
00000270: 8209 27c1 3905 eb40 54dd cabf 98f3 1a3d
00000280: cead b6be 5b58 1a3f f040 1abd 5568 1240
00000290: d781 f441 fb55 9fc1 5d16 8042 4d6e 10c1
000002a0: b909 00c1 8afa 8b42 261f b041 8b98 10c2
000002b0: f819 1442 0352 2c42 c8a9 4c42 b168 9e42
000002c0: 8207 ff40 e942 a642 7d05 8040 234c 97c1
000002d0: 0056 c13b 8a56 51c1 f02e 85c2 40dd 8cc1
000002e0: 152c b6c2 b218 8ec2 5a81 0342 9fd2 1d41
000002f0: 0e91 26c2 85df a7c1 f38c 8ec2 c121 9ac2
00000300: f110 bcc2 8daa c1c1 9897 55c2 d924 34c2
00000310: 7795 b3c2 972d 68c2 4faf 613e f625 3bbf
00000320: 9014 42be e4fd 713d 2d04 89bf eef6 68bf
00000330: c52f d4be 3eaf 67bf d0ed 73bf 9dd1 51bf
00000340: 90b9 61be a76b 6bbf 82da 75bf f65f 10bf
00000350: adec 153e cf27 903d fb26 78be 8645 ad3e
00000360: de9e 993d e15a 83bb 614a 23bf 4931 05bf
00000370: 39f5 49bf f399 2cbf 2d74 79bf 86a7 73bf
00000380: d389 a2be 3b74 80bf aa4f 19bf 6fe8 4cbf
00000390: 3779 27bf eca7 2abf e829 0e3f 6bf1 c1be
000003a0: d399 8cbe c8ee 543c 7361 4d3e 0ee7 3142
000003b0: 04f0 5e41 5864 5fc0 bbf6 d642 5453 b642
000003c0: 9346 0642 0451 3542 eabc a941 a708 9cc0
000003d0: b807 6042 39cb b242 4163 b942 da68 a442
000003e0: 989c e1c1 2d7c 7e42 2594 1741 77ec 9cc1
000003f0: 9227 813d 146a 993c 8fcb 8bbf 77f5 f4be
0.078562096 -0.65375644 -1.4105214 -0.9441365 -0.60800326 -0.42926443 -0.63098145 -0.7264617
-0.82145554 -1.2054037 -1.1981074 -0.5593023 -0.7320454 -0.82251954 1.1448035 0.5416499
0.2052242 0.3227698 -0.040975645 0.3218492 20.589497 79.34107 -57.781406 -40.74523
21.319641 -51.47264 2.6037679 0.6880547 1.9417589 8.652001 -14.252012 -37.577873
-76.65881 -29.935476 -38.413006 -87.89142 -0.21758008 -50.72137 -21.589582 53.101654
-14.852018 -29.297583 -8.100658 -29.252525 18.617407 23.898077 -32.995415 -71.98872
-89.88173 -24.629393 -72.06951 -63.503536 -110.410255 3.2013845 -0.21713054 -2.533539
-4.5968347 -2.1390536 -3.2399192 -2.8718843 -5.779353 -1.5677639 -7.5118318 -3.8126168
-4.929572 -2.4282432 -8.69229 -3.4124665 3.058998 0.16185825 3.2187214 2.0889003
-0.18537474 8.089694 -16.363276 -22.648024 -14.5398655 -2.2342327 -22.934647 -0.5579072
-24.693779 -25.388773 -13.882456 -6.3589087 -3.6300316 3.0148451 -5.6836734 -12.720606
17.114637 15.436257 0.07860915 -0.51903194 -0.52737933 -0.65259904 -0.54986316 -1.0185739
-0.21435437 -0.4059421 -0.68254 -0.85446554 -0.20252316 -0.9122535 -0.7629825 -0.71978015
-0.037449792 0.20853698 0.4482356 0.22050491 0.12644531 -39.38105 9.761433 -8.86945
-20.42626 -47.9769 -64.68775 -37.008453 -13.861089 -30.977566 -45.355564 -81.05464
-50.870766 -12.649157 -45.334053 -58.159542 -30.456718 5.136937 0.1715268 -35.69386
-30.816565 8.510675 -33.858418 -45.073483 -57.742805 -17.625994 -50.540916 0.91480315
-43.49878 -78.424255 -40.04621 -23.776403 -3.462259 -35.830433 -42.45615 -57.32851
-0.21019366 -2.266498 -2.8998318 -9.998178 -5.2393208 -10.399251 -16.214857 -0.88896513
-7.614747 -9.973859 -6.1769047 -8.566496 -10.439821 7.3443875 -1.5848794 0.037829965
-0.35679477 0.6029107 -0.037659585 2.287618 30.563398 -19.916983 64.04368 -9.026929
-8.002374 69.989334 22.01521 -36.148968 37.02536 43.08009 51.165802 79.204475
7.9696665 83.130684 4.00067 -18.912176 0.0059001446 -13.083628 -66.591675 -17.608032
-91.0861 -71.04823 32.87632 9.863921 -41.641655 -20.98414 -71.27529 -77.065926
-94.03309 -24.208277 -53.39804 -45.035984 -89.79192 -58.04452 0.22039531 -0.731048
-0.18953156 0.05908002 -1.0704399 -0.91001785 -0.41442695 -0.90501773 -0.9528475 -0.8196047
-0.22043443 -0.9196114 -0.9603654 -0.56396425 0.14641066 0.07038843 -0.2423362 0.33842105
0.07501005 -0.0040086363 -0.6378537 -0.5202833 -0.78889805 -0.6742241 -0.97442895 -0.95177495
-0.31745777 -1.0035471 -0.5988718 -0.80042166 -0.65419334 -0.6666248 0.55532694 -0.378795
-0.2746111 0.012996383 0.20056705 44.47564 13.933598 -3.4904995 107.481895 91.16275
33.56892 45.329117 21.217243 -4.876056 56.007538 89.39692 92.693855 82.20479
-28.201462 63.621265 9.473668 -19.615461 0.063063756 0.01872734 -1.0921496 -0.47843525

layer_1.bias f4 [32]
00000000: 234d afbf cc34 3142 c18a 02c2 6e45 0ac1
00000010: eba5 6bc1 204d 29bf 25e0 5ec2 aab6 b6c1
00000020: 1f0a 31c1 13d6 d041 0d61 90c1 5577 c1bf
00000030: 6d81 83bf 0c1b 8842 f33e 6abf dc93 2dc1
00000040: b391 a9be 33e7 73c1 104e 79bf 9f09 13c2
00000050: b31b 0dc2 77eb 92c0 c87f e6bf bdb9 6fbf
00000060: d1a9 0242 26ee 9cc1 4298 23c2 833f 8941
00000070: 544d 48c2 3235 9042 83d5 c4c1 007c 13c1
-1.3695415 44.30156 -32.6355 -8.641951 -14.728007 -0.6613331 -55.71889 -22.839191
-11.064971 26.104528 -18.047388 -1.5114542 -1.0273873 68.052826 -0.915023 -10.8485985
-0.33118972 -15.243945 -0.9738474 -36.759396 -35.27705 -4.5912433 -1.8007746 -0.9364279
32.665836 -19.616283 -40.89869 17.156012 -50.075516 72.1039 -24.604254 -9.217773

layer_out.weight f4 [104, 32]
00000000: b39b fbbe d6f6 1dc0 61ec c2bf f9bd 033f
00000010: f2f0 9dbf f676 06bf 33b6 9abf 077f 693e
00000020: 4d20 86bf ee62 02bf 70b9 a5bf 9078 0bbf
00000030: de17 3bbf ce64 5ebf c453 86bf 6fee 86bf
00000040: 5813 61bf 1ccd 17bf 89fe 5bbf c0d3 f5bf
00000050: 275c debf 92c5 64bf 4ba4 3dbf f5ff e3be
00000060: 56d5 45bf 6006 c1bf 1c9d 86bf c5c5 00c0
00000070: e343 edbf 616c a0bf 3747 8bbf 3d6b 7cbf
00000080: 17b9 013f e9e9 4e42 e239 5b42 c5b2 5b40
00000090: 7a9a 65bf f480 cb3e 07dc b941 6499 fbc0
000000a0: a489 3ac0 7037 2bc2 734c 7b41 b802 343d
000000b0: e264 7ebf 7a02 67c2 1864 873c dc23 b13f
000000c0: ea91 31bf 7090 f63f aea7 e1bf 40bd c740
000000d0: 1bfb 2a40 d723 14bf 6351 90c0 8738 8b3e
000000e0: f442 02c2 71f5 c440 f6aa 9fc0 14cb f7c1
000000f0: e4f0 3540 77a7 70c2 a51a 9840 84ee 9b3f
00000100: 4049 143f e27b dfc0 9696 19c0 5173 22c0
00000110: e0aa 9540 721b f13e a73f 33c1 691f bac0
00000120: a6b8 94c0 00cc c1c1 7159 43bf 1bd2 43bf
00000130: 25d6 113f 9d01 bbc1 204e cbbe 4971 85bf
00000140: 0acd b63e 9e70 6ebf ee61 0bbf ee58 6740
00000150: e7ad ab40 18ff 14c0 8c64 15c0 09aa cebe
00000160: a4bb dec0 cf65 d4c0 c82e 40c1 ff4e 13c1
00000170: 3da0 5bc1 790d d9c0 c0f1 e6c0 265f 683e
00000180: 6088 133f d566 ccbf d346 60bd 454f fabd
00000190: 2203 94bf cffe 77bf 6bc3 9ebf 94c1 3bbe
000001a0: dbaf 8abf 1835 52bf 3062 97bf 6d64 53bf
000001b0: 6fb8 82bf 0205 5bbf 5c3c 86bf 13fd 94bf
000001c0: e8ae 6abf 4b0a afbf c00f 28bf f0b0 c0bf
000001d0: bf7a 2dbf bf4b 053f 8d21 8abf df44 1ebf
000001e0: 12f2 8bbf 74df 49bf 612f 86bf d775 b9bf
000001f0: 20d0 b0bf 2639 91bf 282c 87bf 9b6a 3cbf
00000200: 0d64 31bf e24a 2cc0 81c8 4dc0 3546 3bc0
00000210: bc0a 703e 811a 15bf 5416 8dc0 6bf8 cebe
00000220: 0d8c b4be 7c18 0340 fd75 48c0 86be 53bf
00000230: 9e41 85bf f0f8 dcc0 62b7 a23e 555d 93bf
00000240: 8e4d 48bf 3333 dbbe 519b 44bf 724b 9cc0
00000250: 7ef5 acc0 aee9 1bbf dee2 853f 3f81 47bf
00000260: fbb8 27bf b2a1 f9c0 1395 50c0 3247 3dc1
00000270: 0980 e7bf 110a 023e 4f5e 8bc0 ab06 e73e
00000280: ddae 2bbf 28cc e7bf c7f1 8ebf 7872 5fbf
00000290: 2c1c 4cbf d39c fd3e 86d2 86bf d270 74bf
000002a0: 1f7d d0be 49d0 08bf cf56 a9bf beb2 39bf
000002b0: a822 80bf 3cf4 3fbf d0a1 5ebf cf18 8dbf
000002c0: 842c 79bf 083a 82bf e84f 22bf b441 95bf
000002d0: 4e7d b6bf 41c0 3cbf 00c4 353f ab0e 04bf
000002e0: fc53 61bf 6dee 3ebf a0a3 87bf eeb0 dcbf
000002f0: 9748 9abf 51dc 12be 26d6 85bf 0278 83bf
00000300: 7849 20bf e580 e9bd 0733 bebe b952 92bf
00000310: ebd1 75bf 2859 30bf 0ea0 89bf f1dd f83d
00000320: 2bcf 57bf 50be 46bf 06b1 94bf 7554 45bf
00000330: ea61 52bf 06b1 62bf 307c 61bf 6426 9fbf
00000340: fea2 43bf 6a58 37bf db05 36bf 047c 02c0
00000350: 0222 a3bf 3501 40bf c389 94bf 1f28 0fbf
00000360: 04ad 27bf f1e3 99bf 1d4d 8cbf 83e9 ffbf
00000370: b898 92bf 557c 5fbf 23b0 8ebf 4208 89bf
00000380: 71c4 2cbf 5df9 26c0 c7a3 5cbf 56c9 06be
00000390: 7370 d63d 09b7 2bbf fc83 1fbf 3e73 6fbf
000003a0: f13f 98bf e262 fd3e 8ede 14be 155f 5fbd
000003b0: 5138 c13e 42fe 38bf 001f 3b3f ffdc 20be
000003c0: 10d9 60bf 04d9 90bf c300 50bf 77f2 a7bf
000003d0: b3ee 8cbf 2bc8 d63e 4064 c63e 386c 0bbf
000003e0: 02f6 423f 8347 bcbf 05e1 57bf 8537 0dc0
000003f0: 088e b1bf 46e3 88be ee74 84bf 6c09 253f
-0.49142227 -2.4681907 -1.5228387 0.5146175 -1.2339156 -0.5252527 -1.2086853 0.22802363
-1.0478607 -0.50932205 -1.2947216 -0.5448084 -0.73083293 -0.86872566 -1.0494313 -1.0541514
-0.8792014 -0.5929735 -0.85935265 -1.9205246 -1.7371873 -0.8936397 -0.74078816 -0.44531217
-0.7727865 -1.508007 -1.0516696 -2.012071 -1.8536342 -1.2533075 -1.0881108 -0.9860113
0.5067305 51.728428 54.806526 3.4327862 -0.8968884 0.3974682 23.232435 -7.8624744
-2.914651 -42.80414 15.706164 0.043947905 -0.99372685 -57.75242 0.01652722 1.3839068
-0.6936327 1.9262829 -1.7629297 6.241852 2.6715763 -0.5786719 -4.509935 0.27191564
-32.565384 6.154961 -4.9896193 -30.97416 2.8428278 -60.16354 4.7532525 1.2182164
0.5792427 -6.9838724 -2.399816 -2.5382884 4.677109 0.47091252 -11.20304 -5.8163342
-4.64754 -24.22461 -0.7630835 -0.7649247 0.56967384 -23.375788 -0.39708042 -1.0425197
0.35703307 -0.9314059 -0.54446304 3.6148028 5.3649783 -2.3280697 -2.334262 -0.40364102
-6.9604053 -6.637428 -12.011421 -9.206786 -13.726621 -6.7828946 -7.2170105 0.22692546
0.57629967 -1.5968882 -0.054755043 -0.12222151 -1.1563456 -0.9687318 -1.2403387 -0.18335563
-1.0834917 -0.82112265 -1.182684 -0.8257511 -1.0212535 -0.85554516 -1.048717 -1.1639732
-0.91673136 -1.3675016 -0.6564903 -1.5053997 -0.6776542 0.52068704 -1.0791489 -0.6182384
-1.0933249 -0.7885659 -1.0483209 -1.4489087 -1.3813515 -1.1345565 -1.056035 -0.7360017
-0.6929329 -2.6920705 -3.2153628 -2.92616 0.23441595 -0.58243567 -4.4089756 -0.40423903
-0.352631 2.0483694 -3.1322014 -0.8271259 -1.041065 -6.905388 0.31780535 -1.1512858
-0.7824334 -0.428125 -0.76799494 -4.8842096 -5.4049673 -0.6090344 1.0459859 -0.7793159
-0.6551663 -7.800988 -3.2590988 -11.829882 -1.8085948 0.12699153 -4.3552623 0.45122275
-0.67063695 -1.8109179 -1.1167535 -0.8728404 -0.79730487 0.4953371 -1.0532997 -0.9548465
-0.4072046 -0.5344282 -1.3229617 -0.72538364 -1.0010576 -0.7498205 -0.86965656 -1.1023196
-0.9733355 -1.017396 -0.6340318 -1.1660676 -1.425699 -0.73730856 0.710022 -0.5158488
-0.88018775 -0.7458256 -1.0596809 -1.7241495 -1.2053403 -0.14341857 -1.0455978 -1.0270998
-0.62612104 -0.11401538 -0.37148306 -1.1431495 -0.96023434 -0.6888604 -1.075197 0.12151707
-0.8430049 -0.77634144 -1.1616523 -0.77081996 -0.82180655 -0.88551366 -0.8808012 -1.2433591
-0.7642058 -0.71619284 -0.71102685 -2.0388193 -1.2744753 -0.7500184 -1.1604542 -0.55920595
-0.65498376 -1.2022687 -1.0961033 -1.9993137 -1.1452856 -0.8729909 -1.1147503 -1.0705645
-0.67487246 -2.60897 -0.86187404 -0.13162741 0.10470667 -0.67076164 -0.6231077 -0.9353522
-1.1894513 0.49489504 -0.14538023 -0.054534037 0.37738279 -0.72262967 0.7309418 -0.15709303
-0.8783121 -1.1316228 -0.8125116 -1.3120869 -1.1010345 0.4194959 0.3874836 -0.54462004
0.7615663 -1.4709324 -0.8432773 -2.2065136 -1.387147 -0.26735896 -1.0348184 0.644675

layer_out.bias f4 [104]
00000000: 003f d0c0 7b29 c8c2 c87b fac1 5559 d1c0
00000010: da11 1fc1 4523 d2c0 5ea4 dec0 db40 c3c0
00000020: a3f7 e6c0 cd02 35c0 edc2 ddc0 6397 b1c0
00000030: 7aad 0a43 ad0c e2c0 99c3 83c0 1de6 d6c0
00000040: 52a2 bdc0 43bd fec0 9bd0 d7c0 d6cd b5c0
00000050: 23d2 bcc0 26a2 ccc0 b0b4 d9c0 432c bdc0
00000060: f79b 11c1 eb07 9fc0 01f7 14c1 5689 e0c0
00000070: 7844 e2c0 53c1 e1c0 c5c9 e0c0 40e7 e1c0
00000080: d866 ddc0 84cc e6c0 a59a d5c0 2635 e2c0
00000090: 8248 c0c0 e7b6 d2c0 0be3 dec0 ecb9 dcc0
000000a0: f94f dbc0 02d6 c7c0 2bf1 c0c0 6893 cbc0
000000b0: 9216 c7c0 023d e7c0 5da3 c8c0 45c1 d2c0
000000c0: 9725 e0c0 dacb d1c0 2867 e5c0 cf79 e6c0
000000d0: 742c e4c0 766c dac0 50e3 e8c0 51c3 ccc0
000000e0: 016c eac0 e502 dfc0 c9ab d5c0 364d d9c0
000000f0: 82fb b7c0 c052 d5c0 b05e eac0 89ca d9c0
00000100: 6804 e8c0 c631 c4c0 df45 e1c0 b19e e1c0
00000110: 3204 e4c0 1dd7 e9c0 baf1 e8c0 d75e e9c0
00000120: b556 e8c0 1633 dcc0 5688 ddc0 974d e2c0
00000130: e203 d4c0 05cb e2c0 f696 d6c0 a42d e0c0
00000140: 06ad e1c0 a444 e7c0 5771 bfc0 17b7 dec0
00000150: 22b5 dfc0 b9a0 cac0 59aa d8c0 248d e2c0
00000160: caf4 e9c0 d63a b7c0 e117 e4c0 aa9b e6c0
00000170: 3281 a7c0 f4e5 dfc0 21dd d9c0 6065 dec0
00000180: a8df e2c0 e367 e3c0 7a82 c2c0 af1d 47c1
00000190: 6bc4 dac0 b374 e6c0 0bc6 bcc0 9d45 c1c0
-6.5076904 -100.08102 -31.31044 -6.542155 -9.941858 -6.5668054 -6.9575644 -6.101667
-7.217729 -2.828296 -6.9300447 -5.54973 138.67764 -7.0640473 -4.1176267 -6.71559
-5.9260645 -7.960603 -6.7442145 -5.6813765 -5.9006515 -6.3947935 -6.8033066 -5.911653
-9.100577 -4.9697165 -9.310304 -7.0167646 -7.070858 -7.054849 -7.02463 -7.0594788
-6.918804 -7.2124653 -6.6751275 -7.068988 -6.008851 -6.584827 -6.965215 -6.8976955
-6.8535123 -6.244874 -6.0294394 -6.361744 -6.221505 -7.2261972 -6.269942 -6.5860925
-7.0045886 -6.556134 -7.1688423 -7.202369 -7.1304264 -6.82574 -7.277748 -6.3988423
-7.325684 -6.9691033 -6.67722 -6.790675 -5.7494516 -6.6663513 -7.3240585 -6.8059735
-7.250538 -6.131076 -7.039779 -7.0506215 -7.125512 -7.307509 -7.2795076 -7.292827
-7.2605844 -6.881236 -6.9228926 -7.0719714 -6.625474 -7.0872827 -6.705928 -7.0055714
-7.052371 -7.227129 -5.9825854 -6.95985 -6.990861 -6.3321195 -6.7707944 -7.079729
-7.3111315 -5.725932 -7.127915 -7.206502 -5.234521 -6.9968204 -6.8082433 -6.949875
-7.089802 -7.1064315 -6.0784273 -12.444747 -6.836477 -7.2017455 -5.899175 -6.0397477
