models/pytorch_beer1.pt (torch, 17943 bytes, 4 tensors)

layer_1.weight f4 [32, 18]
0.060732827 -21.636381 -0.15056425 1.4494529 14.831786 -48.67079 8.935174 -20.660748
3.6520152 26.267498 -23.990404 -17.853094 -11.436063 -0.99451923 19.558264 -6.6439247
-39.168636 -37.642838 -0.16631916 -0.5609892 -5.165672 -3.5332313 -4.1885214 -3.211621
-0.7506324 -4.6308126 -2.9814072 -1.305355 -3.272828 -7.0182767 -1.8933553 -7.3789883
-1.6165632 -0.26793227 2.844999 -1.4107976 0.059124306 -0.49688256 -0.5928734 -0.7436427
-0.468342 -1.5234662 -0.8156448 -1.8128123 -1.3454202 -0.998132 -0.7665373 -0.9217169
-0.14215727 -0.8853641 0.3861399 0.37526435 0.6139992 0.6464516 -0.15353882 -33.420887
0.38745418 -31.777685 38.584896 -9.247978 9.185684 21.137094 -5.155122 -10.439284
-3.9079885 26.045294 35.968582 -23.366413 49.1075 -13.341754 6.898233 33.04404
0.025438502 -13.184057 0.77146864 -6.2771354 -15.040185 -8.179038 -11.283978 -4.1803956
-9.936764 -16.829174 -5.3268 -20.913328 -17.234577 -10.665656 24.702513 -3.319492
-11.01446 2.3863952 0.032314256 -21.59684 -11.944145 17.069351 -18.228273 -23.553434
-72.22264 -16.969158 -35.564796 17.278019 -27.938414 -37.330513 -33.28054 2.9125028
-52.022446 -81.86047 1.237618 -34.019478 -0.07121767 2.3381078 -6.106685 -5.5846763
-37.47749 -2.9837928 60.743168 -9.131405 28.53509 -10.282747 30.585794 53.46042
0.18495439 -10.898969 33.85182 37.194904 -7.682569 5.5719433 -0.06645864 6.333086
-17.276314 -1.2747568 -25.46208 12.448223 -19.017508 -19.955338 -6.14259 -3.6224608
-7.2938476 -15.276418 -28.815317 -10.477981 1.9479864 -9.313081 6.2810807 -1.0091664
0.048539653 68.09409 -3.2261057 25.806944 -6.30665 49.112995 61.96425 22.79933
27.63156 65.90206 19.894602 66.20653 25.292227 18.092476 10.765368 27.352661
25.831663 36.49661 -0.02005227 23.979294 19.134296 29.249321 12.17719 28.210762
61.28037 14.7804985 40.966076 29.487888 38.529232 99.18247 42.535725 28.083921
-2.4976058 11.508815 -21.168373 -17.459276 0.15472905 39.99806 36.35804 -6.027789
18.064877 22.884869 55.870445 1.8211402 70.722404 1.291869 35.260986 65.584496
28.770325 14.131232 -26.869642 -13.675412 -19.741703 -7.175136 -0.028213575 -4.197059
-11.142687 -22.632298 4.645283 -9.17574 -14.435294 -13.856036 -21.481415 -7.068586
-8.832661 -13.788079 -7.159266 -15.90544 -8.150852 9.593108 15.328014 -4.778172
0.059676602 -39.267773 56.604313 -1.1722869 36.369434 26.32831 56.02484 32.421917
58.89688 -25.412054 44.696297 20.298767 22.877329 -3.8517454 43.369373 45.15261
-13.135217 5.2095375 0.20325686 4.7290473 -13.17039 -8.774698 -0.67166543 -15.431003
-9.234915 -20.257553 -2.4479165 -17.719223 -15.937126 -20.321785 -16.925602 -0.84377843
-1.7592916 0.07393906 18.478691 -12.207291 0.10853012 -7.2106276 -4.5485926 -5.2147236
00000000: fcc2 783d 4f17 adc1 842d 1abe ac87 b93f
00000010: ff4e 6d41 e4ae 42c2 79f6 0e41 3649 a5c1
00000020: 9eba 6940 d623 d241 59ec bfc1 23d3 8ec1
00000030: 1dfa 36c1 d098 7ebf 5377 9c41 089b d4c0
00000040: afac 1cc2 4492 16c2 924f 2abe fd9c 0fbf
00000050: 2f4d a5c0 7620 62c0 5e08 86c0 338b 4dc0
00000060: 7229 40bf 9e2f 94c0 60cf 3ec0 df15 a7bf
00000070: 0476 51c0 b995 e0c0 7759 f2bf ac20 ecc0
00000080: 8beb cebf 6b2e 89be 7714 3640 0495 b4bf
00000090: 542c 723d 6467 febe 8dc6 17bf 5e5f 3ebf
000000a0: 86ca efbe f100 c3bf 19ce 50bf 3c0a e8bf
000000b0: bb36 acbf 9485 7fbf ca3b 44bf a4f5 6bbf
000000c0: ad91 11be 39a7 62bf 21b4 c53e a622 c03e
000000d0: 0d2f 1d3f da7d 253f 4839 1dbe fdae 05c2
000000e0: 6560 c63e b338 fec1 ef56 1a42 b8f7 13c1
000000f0: 90f8 1241 c518 a941 c2f6 a4c0 4f07 27c1
00000100: 7c1c 7ac0 c35c d041 d4df 0f42 6aee bac1
00000110: 146e 4442 d377 55c1 53be dc40 192d 0442
00000120: 6864 d03c e6f1 52c1 f87e 453f 4bde c8c0
00000130: 99a4 70c1 57dd 02c1 2d8b 34c1 cdc5 85c0
00000140: fcfc 1ec1 26a2 86c1 2575 aac0 7f4e a7c1
00000150: 6ae0 89c1 87a6 2ac1 bf9e c541 8f72 54c0
00000160: 3a3b 30c1 b3ba 1840 f45b 043d 54c6 acc1
00000170: 381b 3fc1 088e 8841 81d3 91c1 6f6d bcc1
00000180: fe71 90c2 d6c0 87c1 5a42 0ec2 6239 8a41
00000190: df81 dfc1 7252 15c2 461f 05c2 7266 3a40
000001a0: fc16 50c2 90b8 a3c2 446a 9e3f f213 08c2
000001b0: 92da 91bd 8fa3 1540 f769 c3c0 abb5 b2c0
000001c0: f3e8 15c2 76f6 3ec0 01f9 7242 3c1a 12c1
000001d0: dd47 e441 2286 24c1 b5af f441 78d7 5542
000001e0: af64 3d3e 2d62 2ec1 4468 0742 95c7 1442
000001f0: 9bd7 f5c0 5c4d b240 781b 88bd a4a8 ca40
00000200: e435 8ac1 3b2b a3bf 57b2 cbc1 ec2b 4741
00000210: db23 98c1 88a4 9fc1 1990 c4c0 66d6 67c0
00000220: 3367 e9c0 356c 74c1 c585 e6c1 cfa5 27c1
00000230: 9e57 f93f 6102 15c1 9dfe c840 5d2c 81bf
00000240: 84d1 463d 2d30 8842 8478 4ec0 9f74 ce41
00000250: 14d0 c9c0 b573 4442 64db 7742 0765 b641
00000260: 6f0d dd41 dbcd 8342 2528 9f41 be69 8442
00000270: 7b56 ca41 64bd 9041 f33e 2c41 40d2 da41
00000280: 3fa7 ce41 87fc 1142 a844 a4bc 98d5 bf41
00000290: 0a13 9941 9cfe e941 c5d5 4241 a4af e141
000002a0: 191f 7542 ec7c 6c41 43dd 2342 32e7 eb41
000002b0: ef1d 1a42 6d5d c642 9524 2a42 dfab e041
000002c0: c6d8 1fc0 1b24 3841 d458 a9c1 99ac 8bc1
000002d0: 4b71 1e3e 03fe 1f42 a26e 1142 a6e3 c0c0
000002e0: de84 9041 3614 b741 567b 5f42 1f1b e93f
000002f0: df71 8d42 f75b a53f 400b 0d42 432b 8342
00000300: a029 e641 8719 6241 07f5 d6c1 7dce 5ac1
00000310: 02ef 9dc1 b79a e5c0 2820 e7bc 4f4e 86c0
00000320: 7248 32c1 f20e b5c1 29a6 9440 d5cf 12c1
00000330: f7f6 66c1 53b2 5dc1 f0d9 abc1 db31 e2c0
00000340: 9452 0dc1 f99b 5cc1 b518 e5c0 af7c 7ec1
00000350: e469 02c1 5f7d 1941 8c3f 7541 c9e6 98c0
00000360: 746f 743d 3312 1dc2 d16a 6242 7f0d 96bf
00000370: 4d7a 1142 61a0 d241 7019 6042 0bb0 0142
00000380: 6896 6b42 e34b cbc1 02c9 3242 e063 a241
00000390: c504 b741 ff82 76c0 3d7a 2d42 469c 3442
000003a0: d929 52c1 88b4 a640 9122 503e 5b54 9740
000003b0: ebb9 52c1 2a65 0cc1 44f2 2bbf 63e5 76c1
000003c0: 36c2 13c1 780f a2c1 aaaa 1cc0 f8c0 8dc1
000003d0: 78fe 7ec1 0493 a2c1 a267 87c1 dd01 58bf
000003e0: 7830 e1bf 5d6d 973d 5cd4 9341 1051 43c1
000003f0: 0a45 de3d 76bd e6c0 128e 91c0 04df a6c0

layer_1.bias f4 [32]
-16.499743 -10.985504 -1.9895003 10.675669 -19.859024 -13.12771 6.62317 -19.327555
42.394855 54.720932 69.38058 -26.232214 38.210262 -19.721647 -15.537575 -14.975374
-1.254038 -33.74846 -14.99535 33.69749 32.31185 63.501667 -13.519941 23.742882
-0.9994639 -16.866516 -18.914167 -0.7711238 -0.8513784 3.969348 -1.6675069 -10.688169
00000000: 79ff 83c1 a0c4 2fc1 f2a7 febf 8acf 2a41
00000010: 48df 9ec1 1a0b 52c1 02f1 d340 d59e 9ac1
00000020: 5594 2942 3ce2 5a42 dbc2 8a42 93db d1c1
00000030: 4fd7 1842 efc5 9dc1 e899 78c1 229b 6fc1
00000040: 5184 a0bf 6cfe 06c2 f4ec 6fc1 3bca 0642
00000050: 563f 0142 b501 7e42 ae51 58c1 6cf1 bd41
00000060: dedc 7fbf a0ee 86c1 3750 97c1 5f68 45bf
00000070: eff3 59bf cc09 7e40 de70 d5bf bd02 2bc1

layer_out.weight f4 [104, 32]
-0.12638283 -0.554522 -1.0532105 -0.855976 -1.29887 -0.8362581 0.019909121 -0.81265444
-0.6645454 -1.388174 -0.22318836 -0.64799196 -0.52752185 -0.2750728 -1.1592075 -1.6126789
-0.8155438 -0.90643936 -1.3901376 -0.29773265 -0.7437701 -1.3231319 -1.0497969 -1.1224533
-0.60025054 -0.77692014 -0.7385437 -0.7574784 -0.8657934 -0.663308 -1.1954331 -1.3959739
30.737396 5.085729 1.9605224 -27.648026 -3.1727905 40.821007 3.7156315 5.249299
11.358904 -32.427742 -32.799828 2.4931712 -2.160525 4.2950635 0.20379822 12.801067
-0.72312635 -10.007527 2.5478246 -40.48606 -6.823713 -5.351113 9.163533 7.588968
-0.44133466 -6.5096817 19.73437 -0.61985743 -0.70760214 -71.06036 -1.0735354 -1.945398
-1.9827292 -0.268016 0.23392221 4.022308 -1.1707584 3.7358086 -5.8301806 -1.8156351
-0.8230534 -4.833473 -3.1147587 2.7145543 -2.8457808 -0.19410715 -3.583533 2.0751975
-0.79076564 -0.14693871 -2.5304902 -2.2056372 -3.0679126 -4.249622 0.5605437 -1.1892189
-0.30970946 1.1732022 -0.37188876 -0.8784615 -0.84849507 -2.7902577 0.37620127 2.8426502
-1.3315117 -0.24196336 -0.8750878 -1.0002913 -1.0244535 -0.6191055 -1.1036245 -0.9885513
-1.1860241 -1.1449337 -0.8318638 -0.62590414 -0.98237157 -0.39048207 -1.0709175 -1.714985
-0.48983777 -0.72241336 -1.2395529 -1.0407627 -1.0881431 -1.1988004 -1.07755 -1.0121776
-0.47838613 -0.5158922 -0.7504972 -0.6209967 -0.73283535 -0.71079564 -0.9983827 -1.2082449
-1.288856 -0.40986758 -0.84076697 -0.82351315 -0.89634275 -0.8761162 -1.2172351 -0.90883005
-1.0373187 -1.1311563 -0.8566084 -0.83151895 -0.98724014 -0.32470515 -1.0617703 -1.8290886
-0.70606595 -1.0514538 -1.1947602 -0.9597883 -1.0072827 -1.1730367 -1.085459 -1.1408628
-0.7395281 -0.69971603 -0.59699243 -0.88041604 -0.5053069 -0.50978 -1.0397336 -1.1286206
-1.4297323 -0.25549737 -1.2789125 -0.9985293 -1.1957953 -0.68508667 -0.8657684 -1.15665
-0.45603496 -1.3954937 -0.020743072 -0.61065096 -1.3286598 -0.38347894 -0.52049434 -2.3963413
-0.59149945 -1.3743869 -0.93348193 -0.3740803 -0.47085327 -0.99575245 -0.40940458 -1.2468178
-0.52965224 -0.6989293 -0.6509189 -0.886029 -0.6770587 -0.8661794 -0.91973376 -0.85706496
-1.0255501 -0.40550148 -1.1658536 -0.7879845 -0.9989267 -0.87961304 -0.9234869 -0.7863664
-1.1902064 -1.2980311 -0.7360752 -0.6999706 -1.0097948 -0.46556672 -1.0233053 -2.09564
-0.7500342 -1.0513 -1.3586627 -1.0602187 -1.1668924 -1.1400216 -1.0648705 -1.1184294
-0.5526697 -0.6704072 -0.7363584 -0.9060158 -0.5819782 -0.8330086 -0.9901092 -1.1103315
-1.3554592 -0.019978551 -0.96628517 -1.0063456 -1.4406278 -1.0699883 -0.66702515 -0.8416452
-0.9984533 -1.0705923 -0.99256307 -1.3636858 -1.086931 1.23766 0.37363937 -1.4018493
-0.5731363 -1.1579072 -1.3412527 0.08726832 -1.1820561 -1.4408017 -1.038695 -1.8334923
-0.552638 -0.72462624 -0.8997546 0.3284667 -0.7195778 -0.920338 -1.196925 -0.8633817
00000000: 806a 01be 27f5 0dbf 9acf 86bf 3e21 5bbf
00000010: 5f41 a6bf 0315 56bf 7418 a33c 1f0a 50bf
00000020: a61f 2abf b0af b1bf 7d8b 64be cde2 25bf
00000030: ac0b 07bf 58d6 8cbe e960 94bf 436c cebf
00000040: 7ac7 50bf 690c 68bf 07f0 b1bf 6a70 98be
00000050: b867 3ebf 635c a9bf bf5f 86bf 8dac 8fbf
00000060: 05aa 19bf 3de4 46bf 3311 3dbf 1bea 41bf
00000070: a3a4 5dbf 8ece 29bf f403 99bf 46af b2bf
00000080: 30e6 f541 4bbe a240 66f2 fa3f 282f ddc1
00000090: 000f 4bc0 b648 2342 e8cc 6d40 42fa a740
000000a0: 12be 3541 02b6 01c2 0633 03c2 1e90 1f40
000000b0: 0b46 0ac0 2971 8940 7bb0 503e 2cd1 4c41
000000c0: cf1e 39bf d51e 20c1 8f0f 2340 baf1 21c2
000000d0: db5b dac0 513c abc0 d59d 1241 d3d8 f240
000000e0: 9ef6 e1be 504f d0c0 fddf 9d41 faae 1ebf
000000f0: 6a25 35bf e81e 8ec2 9c69 89bf cd02 f9bf
00000100: 12ca fdbf 6539 89be 4e89 6f3e bfb6 8040
00000110: 69db 95bf 7d17 6f40 d790 bac0 bb66 e8bf
00000120: a1b3 52bf d0ab 9ac0 3558 47c0 42bb 2d40
00000130: 4621 36c0 06c4 46be 9b58 65c0 09d0 0440
00000140: 9e6f 4abf 1a77 16be 8df3 21c0 2929 0dc0
00000150: ae58 44c0 e7fc 87c0 cb7f 0f3f 5338 98bf
00000160: 3d92 9ebe 7d2b 963f 3468 bebe dae2 60bf
00000170: f936 59bf 9593 32c0 749d c03e fbed 3540
00000180: fa6e aabf 3ec5 77be c105 60bf 8c09 80bf
00000190: 4b21 83bf b37d 1ebf 9143 8dbf b311 7dbf
000001a0: a3cf 97bf 308d 92bf 07f5 54bf 413b 20bf
000001b0: b47c 7bbf 44ed c7be d313 89bf a184 dbbf
000001c0: 04cc fabe 15f0 38bf aba9 9ebf b637 85bf
000001d0: 4648 8bbf 4b72 99bf 29ed 89bf 098f 81bf
000001e0: 07ef f4be 8311 04bf 9620 40bf a4f9 1ebf
000001f0: 199b 3bbf b4f6 35bf 0296 7fbf c5a7 9abf
00000200: 3cf9 a4bf 2ada d1be 813c 57bf c2d1 52bf
00000210: b876 65bf 2749 60bf 5cce 9bbf 16a9 68bf
00000220: dcc6 84bf bbc9 90bf b04a 5bbf 6dde 54bf
00000230: c5bb 7cbf c13f a6be 17e8 87bf 931f eabf
00000240: bdc0 34bf 0a96 86bf e7ed 98bf b0b4 75bf
00000250: a4ee 80bf 1126 96bf 52f0 8abf cb07 92bf
00000260: b751 3dbf 9720 33bf 7fd4 18bf f262 61bf
00000270: cb5b 01bf f180 02bf fe15 85bf a476 90bf
00000280: 7801 b7bf 8dd0 82be 68b3 a3bf 9e9f 7fbf
00000290: d20f 99bf d761 2fbf ffa2 5dbf 1b0d 94bf
000002a0: 6a7d e9be 8a9f b2bf 60ed a9bc 9f53 1cbf
000002b0: 8611 aabf 5a57 c4be 1e3f 05bf a85d 19c0
000002c0: 826c 17bf e9eb afbf acf8 6ebf 7487 bfbe
000002d0: ae13 f1be a2e9 7ebf 7a9d d1be ba97 9fbf
000002e0: 4a97 07bf 08ed 32bf 9fa2 26bf ccd2 62bf
000002f0: b853 2dbf efbd 5dbf ac73 6bbf 9c68 5bbf
00000300: 3a45 83bf e49d cfbe b13a 95bf 5ab9 49bf
00000310: a9b9 7fbf 522e 61bf a369 6cbf 4f4f 49bf
00000320: af58 98bf e225 a6bf 6d6f 3cbf 4631 33bf
00000330: f540 81bf c35e eebe abfb 82bf f71e 06c0
00000340: 3e02 40bf 0091 86bf a9e8 adbf 3fb5 87bf
00000350: bb5c 95bf 3aec 91bf ad4d 88bf b228 8fbf
00000360: c37b 0dbf ce9f 2bbf fc81 3cbf a7f0 67bf
00000370: 86fc 14bf 0d40 55bf cc77 7dbf 581f 8ebf
00000380: b07f adbf 0faa a3bc 775e 77bf efcf 80bf
00000390: 7e66 b8bf 60f5 88bf 29c2 2abf 0f76 57bf
000003a0: a39a 7fbf 2b09 89bf 9d18 7ebf 428d aebf
000003b0: 8e20 8bbf a56b 9e3f a94d bf3e cc6f b3bf
000003c0: 10b9 12bf 4e36 94bf 2bae abbf bcb9 b23d
000003d0: 9d4d 97bf 316c b8bf f5f3 84bf e0af eabf
000003e0: af79 0dbf 1b81 39bf 5156 66bf ca2c a83e
000003f0: 4036 38bf 459b 6bbf d734 99bf 9506 5dbf

layer_out.bias f4 [104]
-4.223669 -5.454107 0.93489236 -4.1545653 -3.7467976 -3.8676488 -3.7570977 -2.9064543
-4.104038 -3.0404916 -3.4279172 -59.62731 124.06648 -4.058448 -1.3168887 -5.912464
-2.1930735 -3.8935478 -4.785126 -4.200249 -5.448416 -4.02148 -2.2966974 -4.1482697
-2.669021 -2.2365887 -2.0509367 -3.9897518 -4.0308566 -3.9027932 -4.083257 -3.1206114
-4.1561728 -3.844082 -3.8067665 -4.228964 -3.7574687 -3.657342 -3.8904228 -3.7937
-3.8149457 -4.0468473 -3.7854595 -7.173225 -1.8488144 -4.1889386 -3.486864 -2.3564267
-3.8206937 -4.0117803 -3.593233 -4.156018 -4.403136 -38.88367 -4.248777 -3.5852883
-4.020026 -4.309067 -3.2757466 -3.815755 -3.6459062 -3.5802555 -4.1962595 -4.220671
-4.11958 -2.7548358 -3.901611 -4.1732483 -2.255669 -4.234552 -3.5138133 -4.050222
-3.9283712 -4.1170845 -6.417656 -3.7869232 -6.4821906 -3.7535079 -2.3217409 -3.3015878
-3.6130419 -3.2169 11.70625 -2.5657587 -3.1755495 -2.575072 -4.202315 -4.1726465
-4.0875688 -6.627038 -3.9768338 -4.2398157 -4.0526805 -4.2481103 -3.3648598 -4.1200666
-4.10806 -3.913673 -0.74907076 -4.397374 -4.232128 -4.2096286 -3.4263527 -3.4996488
00000000: 4c28 87c0 0b88 aec0 1b55 6f3f 33f2 84c0
00000010: 88cb 6fc0 8f87 77c0 4a74 70c0 5903 3ac0
00000020: 4754 83c0 6a97 42c0 ff62 5bc0 5e82 6ec2
00000030: 0a22 f842 cede 81c0 cf8f a8bf e832 bdc0
00000040: 515b 0cc0 e32f 79c0 c11f 99c0 7168 86c0
00000050: 6d59 aec0 f7af 80c0 17fd 12c0 a0be 84c0
00000060: 3dd1 2ac0 4524 0fc0 8c42 03c0 1858 7fc0
00000070: c7fc 80c0 5dc7 79c0 0baa 82c0 19b8 47c0
00000080: 5eff 84c0 7105 76c0 10a2 73c0 ac53 87c0
00000090: 5e7a 70c0 e411 6ac0 b0fc 78c0 fbcb 72c0
000000a0: 1228 74c0 c67f 81c0 f844 72c0 0f8b e5c0
000000b0: f3a5 ecbf c90b 86c0 c828 5fc0 b2cf 16c0
000000c0: 3f86 74c0 8160 80c0 88f7 65c0 19fe 84c0
000000d0: 7de6 8cc0 e188 1bc2 fbf5 87c0 5d75 65c0
000000e0: 0ea4 80c0 e0e3 89c0 d5a5 51c0 5435 74c0
000000f0: 8756 69c0 e822 65c0 c247 86c0 bd0f 87c0
00000100: 99d3 83c0 3b4f 30c0 ffb3 79c0 408b 85c0
00000110: e25c 10c0 7381 87c0 51e2 60c0 6b9b 81c0
00000120: 6f6a 7bc0 28bf 83c0 705d cdc0 f35c 72c0
00000130: 1b6e cfc0 7939 70c0 6797 14c0 374d 53c0
00000140: 143c 67c0 b1e1 4dc0 cd4c 3b41 6435 24c0
00000150: 343c 4bc0 fbcd 24c0 5d79 86c0 5286 85c0
00000160: 5dcd 82c0 b210 d4c0 7284 7ec0 92ac 87c0
00000170: 8faf 81c0 85f0 87c0 dd59 57c0 96d7 83c0
00000180: 3a75 83c0 9e79 7ac0 1ac3 3fbf 4ab7 8cc0
00000190: 986d 87c0 47b5 86c0 5d49 5bc0 3ffa 5fc0
